…
                         single_eval_pos_gen=utils.get_uniform_single_eval_pos_sampler(max_dataset_size))
    return train_result

train_result = train_a_pfn(get_batch_for_ridge_regression)

# Our trained model can be taken from the results as
trained_model = train_result[2]
trained_model
# Output:
#   TransformerModel(

#     (transformer_encoder): TransformerEncoderDiffInit(

#       (layers): ModuleList(

#         (0-3): 4 x TransformerEncoderLayer(

#           (self_attn): MultiheadAttention(

#             (out_proj): NonDynamicallyQuantizableLinear(in_features=128, out_features=128, bias=True)

#           )

#           (linear1): Linear(in_features=128, out_features=256, bias=True)

#           (dropout): Dropout(p=0.0, inplace=False)

#           (linear2): Linear(in_features=256, out_features=128, bias=True)

#           (norm1): LayerNorm((128,), eps=1e-05, elementwise_affine=True)

#           (norm2): LayerNorm((128,), eps=1e-05, elementwise_affine=True)

#           (dropout1): Dropout(p=0.0, inplace=False)

#           (dropout2): Dropout(p=0.0, inplace=False)

#         )

#       )

#     )

#     (encoder): Sequential(

#       (0): Normalize()

#       (1): Linear(in_features=1, out_features=128, bias=True)

#     )

#     (y_encoder): Linear(in_features=1, out_features=128, bias=True)

#     (pos_encoder): NoPositionalEncoding()

#     (decoder_dict): ModuleDict(

#       (standard): Sequential(

#         (0): Linear(in_features=128, out_features=256, bias=True)

#         (1): GELU(approximate='none')

#         (2): Linear(in_features=256, out_features=1000, bias=True)

#       )

#     )

#     (criterion): FullSupportBarDistribution()

#   )

"""
### Analysis of the performance of our trained PFN
"""

# let's sample some datasets to look at
batch = get_batch_for_ridge_regression(seq_len=100, hyperparameters=hps, batch_size=10)

# our model wants the seq dimension first, remember that!

batch_index = 0 # change this to see other examples
…
rvation_noise': True}}, 'num_features': 18, 'epoch_count': 0}

#   Style definition of first 3 examples: None

#   Initialized decoder for standard with (None, 1000)  and nout 1000

#   Using a Transformer with 26.79 M parameters

#   (inf,

#    inf,

#    TransformerModel(

#      (transformer_encoder): TransformerEncoderDiffInit(

#        (layers): ModuleList(

#          (0): TransformerEncoderLayer(

#            (self_attn): MultiheadAttention(

#              (out_proj): NonDynamicallyQuantizableLinear(in_features=512, out_features=512, bias=True)

#            )

#            (linear1): Linear(in_features=512, out_features=1024, bias=True)

#            (dropout): Dropout(p=0.0, inplace=False)

#            (linear2): Linear(in_features=1024, out_features=512, bias=True)

#            (norm1): LayerNorm((512,), eps=1e-05, elementwise_affine=True)

#            (norm2): LayerNorm((512,), eps=1e-05, elementwise_affine=True)

#            (dropout1): Dropout(p=0.0, inplace=False)

#            (dropout2): Dropout(p=0.0, inplace=False)

#          )

#          (1): TransformerEncoderLayer(

#            (self_attn): MultiheadAttention(

#              (out_proj): NonDynamicallyQuantizableLinear(in_features=512, out_features=512, bias=True)

#            )

#            (linear1): Linear(in_features=512, out_features=1024, bias=True)

#            (dropout): Dropout(p=0.0, inplace=False)

#            (linear2): Linear(in_features=1024, out_features=512, bias=True)

#            (norm1): LayerNorm((512,), eps=1e-05, elementwise_affine=True)

#            (norm2): LayerNorm((512,), eps=1e-05, elementwise_affine=True)

#            (dropout1): Dropout(p=0.0, inplace=False)

#            (dropout2): Dropout(p=0.0, inplace=False)

#          )

#          (2): TransformerEncoderLayer(

#            (self_attn): MultiheadAttention(

#              (out_proj): NonDynamicallyQuantizableLinear(in_features=512, out_features=512, bias=True)

#            )

#            (linear1): Linear(in_features=512, out_features=1024, bias=True)

#            (dropout): Dropout(p=0.0, inplace=False)

#            (linear2): Linear(in_features=1024, out_features=512, bias=True)

#            (norm1): LayerNorm((512,), eps=1e-05, elementwise_affine=True)

#            (norm2): LayerNorm((512,), eps=1e-05, elementwise_affine=True)

#            (dropout1): Dropout(p=0.0, inplace=False)

#            (dropout2): Dropout(p=0.0, inplace=False)

#          )

#          (3): TransformerEncoderLayer(

#            (self_attn): MultiheadAttention(

#              (out_proj): NonDynamicallyQuantizableLinear(in_features=512, out_features=512, bias=True)

#            )

#            (linear1): Linear(in_features=512, out_features=1024, bias=True)

#            (dropout): Dropout(p=0.0, inplace=False)

#            (linear2): Linear(in_features=1024, out_features=512, bias=True)

#            (norm1): LayerNorm((512,), eps=1e-05, elementwise_affine=True)

#            (norm2): LayerNorm((512,), eps=1e-05, elementwise_affine=True)

#            (dropout1): Dropout(p=0.0, inplace=False)

#            (dropout2): Dropout(p=0.0, inplace=False)

#          )

#          (4): TransformerEncoderLayer(

#            (self_attn): MultiheadAttention(

#              (out_proj): NonDynamicallyQuantizableLinear(in_features=512, out_features=512, bias=True)

#            )

#            (linear1): Linear(in_features=512, out_features=1024, bias=True)

#            (dropout): Dropout(p=0.0, inplace=False)

#            (linear2): Linear(in_features=1024, out_features=512, bias=True)

#            (norm1): LayerNorm((512,), eps=1e-05, elementwise_affine=True)

#            (norm2): LayerNorm((512,), eps=1e-05, elementwise_affine=True)

#            (dropout1): Dropout(p=0.0, inplace=False)

#            (dropout2): Dropout(p=0.0, inplace=False)

#          )

#          (5): TransformerEncoderLayer(

#            (self_attn): MultiheadAttention(

#              (out_proj): NonDynamicallyQuantizableLinear(in_features=512, out_features=512, bias=True)

#            )

#            (linear1): Linear(in_features=512, out_features=1024, bias=True)

#            (dropout): Dropout(p=0.0, inplace=False)

#            (linear2): Linear(in_features=1024, out_features=512, bias=True)

#            (norm1): LayerNorm((512,), eps=1e-05, elementwise_affine=True)

#            (norm2): LayerNorm((512,), eps=1e-05, elementwise_affine=True)

#            (dropout1): Dropout(p=0.0, inplace=False)

#            (dropout2): Dropout(p=0.0, inplace=False)

#          )

#          (6): TransformerEncoderLayer(

#            (self_attn): MultiheadAttention(

#              (out_proj): NonDynamicallyQuantizableLinear(in_features=512, out_features=512, bias=True)

#            )

#            (linear1): Linear(in_features=512, out_features=1024, bias=True)

#            (dropout): Dropout(p=0.0, inplace=False)

#            (linear2): Linear(in_features=1024, out_features=512, bias=True)

#            (norm1): LayerNorm((512,), eps=1e-05, elementwise_affine=True)

#            (norm2): LayerNorm((512,), eps=1e-05, elementwise_affine=True)

#            (dropout1): Dropout(p=0.0, inplace=False)

#            (dropout2): Dropout(p=0.0, inplace=False)

#          )

#          (7): TransformerEncoderLayer(

#            (self_attn): MultiheadAttention(

#              (out_proj): NonDynamicallyQuantizableLinear(in_features=512, out_features=512, bias=True)

#            )

#            (linear1): Linear(in_features=512, out_features=1024, bias=True)

#            (dropout): Dropout(p=0.0, inplace=False)

#            (linear2): Linear(in_features=1024, out_features=512, bias=True)

#            (norm1): LayerNorm((512,), eps=1e-05, elementwise_affine=True)

#            (norm2): LayerNorm((512,), eps=1e-05, elementwise_affine=True)

#            (dropout1): Dropout(p=0.0, inplace=False)

#            (dropout2): Dropout(p=0.0, inplace=False)

#          )

#          (8): TransformerEncoderLayer(

#            (self_attn): MultiheadAttention(

#              (out_proj): NonDynamicallyQuantizableLinear(in_features=512, out_features=512, bias=True)

#            )

#            (linear1): Linear(in_features=512, out_features=1024, bias=True)

#            (dropout): Dropout(p=0.0, inplace=False)

#            (linear2): Linear(in_features=1024, out_features=512, bias=True)

#            (norm1): LayerNorm((512,), eps=1e-05, elementwise_affine=True)

#            (norm2): LayerNorm((512,), eps=1e-05, elementwise_affine=True)

#            (dropout1): Dropout(p=0.0, inplace=False)

#            (dropout2): Dropout(p=0.0, inplace=False)

#          )

#          (9): TransformerEncoderLayer(

#            (self_attn): MultiheadAttention(

#              (out_proj): NonDynamicallyQuantizableLinear(in_features=512, out_features=512, bias=True)

#            )

#            (linear1): Linear(in_features=512, out_features=1024, bias=True)

#            (dropout): Dropout(p=0.0, inplace=False)

#            (linear2): Linear(in_features=1024, out_features=512, bias=True)

#            (norm1): LayerNorm((512,), eps=1e-05, elementwise_affine=True)

#            (norm2): LayerNorm((512,), eps=1e-05, elementwise_affine=True)

#            (dropout1): Dropout(p=0.0, inplace=False)

#            (dropout2): Dropout(p=0.0, inplace=False)

#          )

#          (10): TransformerEncoderLayer(

#            (self_attn): MultiheadAttention(

#              (out_proj): NonDynamicallyQuantizableLinear(in_features=512, out_features=512, bias=True)

#            )

#            (linear1): Linear(in_features=512, out_features=1024, bias=True)

#            (dropout): Dropout(p=0.0, inplace=False)

#            (linear2): Linear(in_features=1024, out_features=512, bias=True)

#            (norm1): LayerNorm((512,), eps=1e-05, elementwise_affine=True)

#            (norm2): LayerNorm((512,), eps=1e-05, elementwise_affine=True)

#            (dropout1): Dropout(p=0.0, inplace=False)

#            (dropout2): Dropout(p=0.0, inplace=False)

#          )

#          (11): TransformerEncoderLayer(

#            (self_attn): MultiheadAttention(

#              (out_proj): NonDynamicallyQuantizableLinear(in_features=512, out_features=512, bias=True)

#            )

#            (linear1): Linear(in_features=512, out_features=1024, bias=True)

#            (dropout): Dropout(p=0.0, inplace=False)

#            (linear2): Linear(in_features=1024, out_features=512, bias=True)

#            (norm1): LayerNorm((512,), eps=1e-05, elementwise_affine=True)

#            (norm2): LayerNorm((512,), eps=1e-05, elementwise_affine=True)

#            (dropout1): Dropout(p=0.0, inplace=False)

#            (dropout2): Dropout(p=0.0, inplace=False)

#          )

#        )

#      )

#      (encoder): Sequential(

#        (0): Normalize()

#        (1): VariableNumFeaturesEncoder(

#          (base_encoder): Linear(in_features=18, out_features=512, bias=True)

#        )

#      )

#      (y_encoder): Linear(in_features=1, out_features=512, bias=True)

#      (pos_encoder): NoPositionalEncoding()

#      (decoder_dict): ModuleDict(

#        (standard): Sequential(

#          (0): Linear(in_features=512, out_features=1024, bias=True)

#          (1): GELU(approximate='none')

#          (2): Linear(in_features=1024, out_features=1000, bias=True)

#        )

#      )

#      (criterion): FullSupportBarDistribution()

#    ),

#    <pfns4bo.priors.utils.get_batch_to_dataloader.<locals>.DL at 0x7f809d906520>)



================================================
FILE: pfns4bo/__init__.py
================================================
import os

model_path = 'final_models'

def prepare_models():
…
